models/computer_vision_model_2.pth (torch, 34503 bytes, 10 tensors)

block_1.0.weight f4 [10, 1, 3, 3]
0.38436908 0.46566436 0.026702384 0.46337554 0.13192475 0.19352578 -0.037445765 0.35498297
0.37171733 -0.1623519 0.46588334 0.1331692 0.37967876 0.25500852 0.25954005 0.090187676
0.45001075 0.11778578 -0.1978839 0.098874144 -0.05350143 -0.16891332 -0.1890608 0.2830687
-0.40928224 -0.2210268 -0.036862858 -0.18850364 0.03262412 -0.32800862 0.3397278 -0.28356832
0.26202667 0.11584567 -0.0862664 0.22416045 0.14768562 0.4335328 0.11351865 0.031070897
0.28157362 0.0054880516 0.27365345 0.48039702 0.270199 -0.14544599 0.19310468 0.060338285
0.17012948 -0.2030122 -0.330059 -0.12857528 -0.2557013 0.27293164 0.19605376 0.20092997
0.12844884 0.09629152 0.3006967 -0.23300011 0.118265465 -0.20690688 0.0785401 -0.12449369
0.09791729 -0.068422414 0.2574942 -0.20663357 -0.19912529 -0.21803649 0.27958012 0.09778652
0.31454197 -0.27555338 -0.33044267 -0.26939255 -0.22580998 0.13298929 0.1103754 0.2751898
-0.1726298 -0.22723329 0.17676012 -0.1347862 0.20237406 -0.079167984 0.1905622 -0.25897622
-0.1682097 0.10156959
00000000: 06cc c43e 8f6b ee3e f5be da3c 8f3f ed3e
00000010: 4817 073e 9f2b 463e bb60 19bd 54c0 b53e
00000020: bc51 be3e 943f 26be 4388 ee3e 825d 083e
00000030: 4165 c23e 7a90 823e 6fe2 843e 51b4 b83d
00000040: cf67 e63e ac39 f13d 14a2 4abe 877e ca3d
00000050: 5124 5bbd 9df7 2cbe 2899 41be 61ee 903e
00000060: 718d d1be d954 62be 82fd 16bd 1907 41be
00000070: dfa0 053d bff0 a7be cdf0 ad3e de2f 91be
00000080: 5c28 863e 7f40 ed3d 70ac b0bd 518a 653e
00000090: e63a 173e 03f8 dd3e 777c e83d 6588 fe3c
000000a0: 6b2a 903e 1dd5 b33b 4e1c 8c3e 99f6 f53e
000000b0: 8657 8a3e cbef 14be 3cbd 453e 4725 773d
000000c0: 6c36 2e3e 6ee2 4fbe 7efd a8be 3da9 03be
000000d0: 48eb 82be b2bd 8b3e 51c2 483e 96c0 4d3e
000000e0: 1888 033e 7d34 c53d ebf4 993e 9597 6ebe
000000f0: 2a35 f23d 66df 53be a2d9 a03d 8cf6 febd
00000100: dc88 c83d 0d21 8cbd 48d6 833e c097 53be
00000110: 80e7 4bbe f544 5fbe 2025 8f3e 4d44 c83d
00000120: a50b a13e 5515 8dbe c82f a9be d2ed 89be
00000130: bb3a 67be 582e 083e 7f0c e23d ade5 8c3e
00000140: dec5 30be d8af 68be 9b00 353e 6505 0abe
00000150: 253b 4f3e d322 a2bd bd22 433e 8898 84be
00000160: 2a3f 2cbe b803 d03d

block_1.0.bias f4 [10]
0.057717558 0.06900239 0.25389922 0.32392594 0.027266175 -0.17745754 0.46110246 -0.13923675
-0.12521882 -0.32262486
00000000: 3f69 6c3d 2051 8d3d 14ff 813e 9fd9 a53e
00000010: 505d df3c 6eb7 35be 9f15 ec3e 1494 0ebe
00000020: 5d39 00be 162f a5be

block_1.2.weight f4 [10, 10, 3, 3]
-0.053065993 -0.004505748 -0.024006711 -0.091614895 -0.091558695 -0.16994737 -0.043405138 -0.12048172
-0.18495812 -0.072675325 0.0568668 -0.013148356 0.00795018 -0.19297901 -0.16230886 -0.017575964
-0.04608419 -0.16166396 -0.004374456 0.0039836504 0.093645155 -0.0022244304 0.06406184 0.037170425
-0.043425027 -0.0039680637 0.058939844 -0.07822831 0.08794274 -0.008000955 0.13531362 0.06915574
-0.045915317 0.1550281 0.047993783 0.041975778 -0.08267571 -0.14803019 -0.011680734 -0.025177117
-0.036504786 -0.17660357 0.12635349 -0.11627819 -0.084217116 0.022055373 0.054611463 0.085177
0.09614472 -0.08349348 0.026601259 -0.04528114 -0.0115338415 -0.07877981 0.18013906 0.0009594231
0.13716969 0.11422364 0.08761739 -0.008352913 0.1799461 0.07174744 0.04921277 -0.092053235
0.04488637 -0.015332411 -0.043177314 0.09194806 0.024125721 -0.051198862 -0.047147326 -0.0024898099
0.06119194 -0.026286919 -0.059006132 -0.033638697 -0.07470935 0.039198413 0.087868854 -0.09401774
0.0268539 0.054453608 0.019109879 -0.03753491 0.05501715 0.055393994 0.03941877 -0.018523192
-0.027911745 0.011277249 -0.018415127 -0.03120324 0.067397356 0.09092065 -0.010108843 -0.023510532
0.0018243684 -0.006023746 0.02554223 0.0297482 -0.095605955 -0.038921487 0.08902377 0.041258838
-0.0052352715 -0.063405134 -0.06434246 -0.09431924 -0.03435908 0.03559559 0.06718021 0.048736434
-0.09312954 -0.063445926 -0.016597325 0.102019206 0.015238077 -0.027166162 0.043768253 -0.040044703
-0.06806514 0.077152 -0.047841523 -0.02106175 -0.104813084 0.07067658 0.080097124 0.03858749
-0.073506504 -0.103916325 -0.08549889 0.07864099 0.0508175 0.08889725 0.055351645 0.026678262
-0.0010327211 -0.08016436 -0.090311766 -0.09859427 0.04315017 -0.05175224 -0.021213911 -0.06066392
-0.01903592 -0.07396606 -0.068804435 0.0352938 -0.031057436 0.065259926 -0.033548795 -0.07709192
-0.018486429 -0.05108375 -0.032246914 -0.100344166 0.059014924 -0.07336046 0.05300508 0.0478348
0.07533615 -0.08084687 0.07583142 -0.04982104 0.03913693 0.09899102 -0.014853662 -0.0008122357
-0.024272714 -0.08798806 0.050595034 -0.10464165 0.065438055 0.07886986 0.09968633 -0.024862742
-0.08660866 0.023699187 0.058230944 -0.10491475 -0.023924254 -0.063187994 -0.009219544 -0.051872335
-0.04309247 -0.033483874 -0.100178264 0.08647742 0.0883516 -0.016535683 -0.012004195 -0.043019827
-0.09518154 -0.10257263 0.039167292 -0.057871394 -0.067774564 -0.008246892 -0.035103 -0.03410242
0.003386291 -0.022353103 -0.036283 -0.050471902 -0.08578491 0.0884019 -0.042183664 0.027930865
-0.03657369 0.008565003 0.098291 0.048573118 -0.091359735 0.04185438 0.10005728 0.027718266
0.07066942 0.10392169 -0.016151747 0.021887604 -0.073259346 -0.02172986 0.078062594 0.054017726
-0.06672959 -0.08452611 -0.072032854 -0.10402604 -0.08133789 -0.026067598 0.071137376 0.017643638
-0.080174714 -0.084561825 0.052438855 -0.07840787 -0.012979195 0.05058768 -0.0487672 -0.011499824
-0.009142534 -0.024906471 -0.053452116 -0.09396586 -0.08520832 -0.056442615 0.10181076 -0.050914433
-0.07079097 0.025544524 0.029050825 0.057762414 0.08012395 0.058699597 -0.104513384 0.009348786
00000000: ba5b 59bd f4a4 93bb b9a9 c4bc 97a0 bbbd
00000010: 2083 bbbd af06 2ebe 96c9 31bd 1fbf f6bd
00000020: a965 3dbe cdd6 94bd 29ed 683d 346c 57bc
00000030: 7941 023c 4a9c 45be 4b34 26be 78fb 8fbc
00000040: c7c2 3cbd 3d8b 25be 9957 8fbb 4889 823b
00000050: 08c9 bf3d c0c7 11bb db32 833d 0440 183d
00000060: 71de 31bd 8806 82bb e86a 713d 2a36 a0bd
00000070: 531b b43d 7016 03bc a78f 0a3e 86a1 8d3d
00000080: b311 3cbd b0bf 1e3e 2195 443d cbee 2b3d
00000090: e251 a9bd 3a95 17be 8d60 3fbc 3e40 cebc
000000a0: 0b86 15bd 91d7 34be cf62 013e 4223 eebd
000000b0: 067a acbd 78ad b43c 45b0 5f3d 4771 ae3d
000000c0: 86e7 c43d a1fe aabd e2ea d93c b778 39bd
000000d0: 70f8 3cbc 4f57 a1bd 6076 383e cb81 7b3a
000000e0: 3676 0c3e 15ee e93d bf70 b33d a8da 08bc
000000f0: ca43 383e 52f0 923d 5493 493d 6886 bcbd
00000100: c5da 373d cb34 7bbc b2da 30bd 444f bc3d
00000110: 4ea3 c53c e6b5 51bd 8e1d 41bd 142c 23bb
00000120: 66a4 7a3d aa57 d7bc 6ab0 71bd bbc8 09bd
00000130: 3701 99bd 848e 203d 96f4 b33d 5f8c c0bd
00000140: b6fc db3c bf0a 5f3d 528c 9c3c 35be 19bd
00000150: aa59 613d d0e4 623d 9375 213d f3bd 97bc
00000160: 2ca7 e4bc 36c4 383c 52db 96bc f09d ffbc
00000170: a007 8a3d 9b34 ba3d 909f 25bc 2999 c0bc
00000180: a51f ef3a d862 c5bb f03d d13c 7fb2 f33c
00000190: 0ecd c3bd 236c 1fbd 1852 b63d 07ff 283d
000001a0: a48c abbb 8dda 81bd fbc5 83bd 722a c1bd
000001b0: 1bbc 0cbd aecc 113d c795 893d db9f 473d
000001c0: b3ba bebd f0ef 81bd 1df7 87bc 72ef d03d
000001d0: 21a9 793c 928b debc 5746 333d ea05 24bd
000001e0: bc65 8bbd de01 9e3d 79f5 43bd b189 acbc
000001f0: 3ea8 d6bd e2be 903d f609 a43d ea0d 1e3d
00000200: 948a 96bd 15d2 d4bd 0b1a afbd 870e a13d
00000210: 0326 503d c30f b63d 68b8 623d 5f8c da3c
00000220: 5f5c 87ba 362d a4bd 60f5 b8bd cbeb c9bd
00000230: 3cbe 303d 28fa 53bd ccc8 adbc bb7a 78bd
00000240: 38f1 9bbc 857b 97bd 57e9 8cbd 3b90 103d
00000250: 2a6c febc ffa6 853d 766a 09bd 5ee2 9dbd
00000260: da70 97bc 323d 51bd 5715 04bd 3e81 cdbd
00000270: a2b9 713d 023e 96bd db1b 593d 6cee 433d
00000280: d749 9a3d 0b93 a5bd 814d 9b3d 2611 4cbd
00000290: 0c4e 203d cebb ca3d c65c 73bc 37ec 54ba
000002a0: 92d7 c6bc 1633 b4bd bd3c 4f3d 5d4e d6bd
000002b0: 6304 863d 8586 a13d 5928 cc3d f3ac cbbc
000002c0: e25f b1bd cc24 c23c 9283 6e3d 8bdd d6bd
000002d0: ccfc c3bc b568 81bd 920d 17bc 1678 54bd
000002e0: bb81 30bd 6326 09bd 432a cdbd 131b b13d
000002f0: aff1 b43d d775 87bc 3ead 44bc 8f35 30bd
00000300: 8aee c2bd 9911 d2bd e26d 203d 8e0a 6dbd
00000310: 64cd 8abd f91d 07bc 2ac8 0fbd fbae 0bbd
00000320: 89ec 5d3b db1d b7bc 7c9d 14bd a0bb 4ebd
00000330: 00b0 afbd 0e0c b53d c7c8 2cbd 45cf e43c
00000340: 4bce 15bd 3a54 0c3c cb4c c93d 9bf4 463d
00000350: d01a bbbd 806f 2b3d d5ea cc3d 6b11 e33c
00000360: 21bb 903d e5d4 d43d ab50 84bc a24d b33c
00000370: ff08 96bd d202 b2bc 48df 9f3d b141 5d3d
00000380: 86a9 88bd 061c adbd f685 93bd 9b0b d5bd
00000390: 7b94 a6bd b78b d5bc 79b0 913d 6489 903c
000003a0: a432 a4bd c02e adbd 20ca 563d 4e94 a0bd
000003b0: b1a6 54bc 0735 4f3d 1ec0 47bd c269 3cbc
000003c0: 91ca 15bc a808 ccbc 9bf0 5abd 2c71 c0bd
000003d0: b381 aebd 5f30 67bd 2982 d03d a78b 50bd
000003e0: dbfa 90bd c042 d13c fffb ed3c 4898 6c3d
000003f0: 0718 a43d fd6e 703d 1d0b d6bd a72b 193c

block_1.2.bias f4 [10]
0.24942985 -0.047302164 -0.05462679 -0.024397578 0.06791008 -0.063102566 -0.025248038 -0.052939113
0.0042806654 -0.037814382
00000000: 8a6a 7f3e eabf 41bd 57c0 5fbd 6edd c7bc
00000010: 7114 8b3d eb3b 81bd f9d4 cebc afd6 58bd
00000020: d344 8c3b 41e3 1abd

block_2.0.weight f4 [10, 10, 3, 3]
0.07619183 -0.057953104 -0.04356171 0.03712774 0.030138621 0.059199005 -0.05241526 0.053796485
0.078366496 0.058527667 -0.098182455 -0.040222503 -0.09063905 -0.06678702 0.058732096 -0.015717259
0.044758096 -0.06181165 0.01601442 -0.063759215 0.052698664 -0.046106484 -0.026434984 -0.09145631
0.00034815323 0.10008399 0.051163394 -0.10676952 -0.055802662 0.008873032 -0.092861556 0.063231245
0.08526826 0.01673413 -0.087190405 -0.028268415 -0.040521044 -0.014007789 0.06465349 -0.03915945
0.13384758 0.1518027 -0.047883943 -0.07277411 0.17195813 0.00035941048 -0.02675171 -0.069154486
-0.03602476 -0.094502494 -0.092977196 0.06459397 0.08777308 0.08939254 -0.08502339 0.03390152
-0.04720858 0.06928443 0.0793793 0.13600864 0.08786367 0.06083377 0.028126014 0.010929008
-0.10257505 0.054463353 -0.030867608 -0.016109746 -0.005558593 -0.01568155 -0.09338819 -0.012179677
-0.12838167 -0.17184107 0.045573547 0.060637273 0.09189249 0.21103527 -0.044300992 -0.1411961
0.105537176 0.06200604 -0.08637105 0.038993705 0.09058224 0.00903019 -0.06194011 0.086683154
0.046409346 0.07030508 -0.18028153 -0.06641644 -0.115932435 0.031666834 -0.1378669 0.023361731
-0.0018181575 -0.009487549 -0.0420221 0.04326564 -0.04394341 -0.0993801 -0.040549174 0.08255214
-0.02787629 0.03288204 -0.039092828 0.07890678 0.063085265 0.037214134 -0.053887025 -0.08613224
0.003968616 -0.061840296 0.08666676 -0.1012958 0.047103584 0.099075936 0.1943951 0.009157068
-0.11200445 0.23771061 -0.021549903 -0.16486603 0.110321105 -0.12477251 0.05440135 0.30923897
-0.17312413 -0.002083598 0.24372673 -0.07910614 -0.028125029 -0.046888277 -0.14654802 -0.07476741
-0.0941807 -0.13287547 0.048818253 0.0055544353 -0.11323259 0.07650052 0.026681455 0.012638389
-0.08126378 0.089213625 0.10623037 0.07586194 -0.0026147983 0.10401198 -0.009011613 0.07305722
0.046769492 0.06478861 0.051364154 0.06946606 -0.087112606 0.142838 -0.080257095 -0.08025283
0.039245445 -0.0719875 -0.017708346 0.25418013 0.10604465 0.10098972 0.32406458 0.07346334
0.03538645 0.075112075 -0.08543086 0.038926687 -0.07711572 -0.07978254 0.028911397 -0.027296118
0.0025827666 -0.01517065 0.025120951 0.06915989 -0.076709054 -0.0109666465 0.0398042 -0.13263316
-0.18841748 -0.12978339 -0.100878224 -0.09272143 -0.01839246 -0.025664266 -0.05328077 -0.033497036
-0.03822037 0.10333623 -0.039092164 -0.07564602 0.043637037 -0.0062349504 0.08069173 0.065860756
0.09683923 -0.0771997 0.067764506 0.088466704 -0.052054495 0.09688997 0.07901899 -0.08971008
0.10572649 -0.032718435 -0.15629931 0.113081686 0.06681467 -0.110631526 0.0698555 -0.14398155
0.0014024089 0.22693437 0.01163227 -0.09234504 0.25407228 0.047769833 0.018499942 0.115361616
-0.02811881 -0.06835043 -0.061726462 -0.016940285 0.0039006073 0.07065206 -0.08984535 -0.010561115
0.012089049 -0.053229492 0.013554668 0.031514294 -0.07272277 -0.04429967 0.00293258 0.05507287
-0.025873482 -0.07127452 -0.02088215 -0.09843214 0.015831688 0.109575324 -0.08527011 0.15001729
0.071620926 -0.1216909 0.060985055 0.058562797 -0.21234168 0.035496365 0.17345749 0.016500695
00000000: 760a 9c3d 3c60 6dbd c36d 32bd 4213 183d
00000010: 45e5 f63c a87a 723d 62b1 56bd b459 5c3d
00000020: 9d7e a03d b5ba 6f3d e213 c9bd 5ac0 24bd
00000030: f7a0 b9bd a2c7 88bd 1191 703d 7bc1 80bc
00000040: 4454 373d 362e 7dbd ac30 833c 3194 82bd
00000050: 8eda 573d 27da 3cbd 2e8e d8bc 724d bbbd
00000060: 5688 b639 d6f8 cc3d b590 513d faa9 dabd
00000070: 5591 64bd 3260 113c 332e bebd 627f 813d
00000080: 20a1 ae3d 0416 893c e290 b2bd 2a93 e7bc
00000090: 65f9 25bd ed80 65bc 0d69 843d a965 20bd
000000a0: 570f 093e 2b72 1b3e f421 44bd 980a 95bd
000000b0: cb15 303e 426f bc39 6726 dbbc dea0 8dbd
000000c0: b38e 13bd 868a c1bd d46a bebd d849 843d
000000d0: 5fc2 b33d 7013 b73d be20 aebd 52dc 0a3d
000000e0: c95d 41bd ffe4 8d3d 9d91 a23d d945 0b3e
000000f0: def1 b33d d52c 793d 8768 e63c 950f 333c
00000100: de12 d2bd f714 5f3d 11de fcbc 96f8 83bc
00000110: dc24 b6bb 9876 80bc 4f42 bfbd 458d 47bc
00000120: 7c76 03be 1bf7 2fbe 54ab 3a3d ca5e 783d
00000130: 2132 bc3d a119 583e f574 35bd b695 10be
00000140: e023 d83d 0cfa 7d3d 4ee3 b0bd ddb7 1f3d
00000150: 2e83 b93d 5df3 133c eab4 7dbd f086 b13d
00000160: ba17 3e3d 1cfc 8f3d b99b 38be 5805 88bd
00000170: fc6d edbd 15b5 013d fb2c 0dbe 1a61 bf3c
00000180: 3e4f eeba aa71 1bbc 5e1f 2cbd 5037 313d
00000190: 01fe 33bd cb87 cbbd e416 26bd 1911 a93d
000001a0: d15c e4bc 51af 063d cd1f 20bd e199 a13d
000001b0: d932 813d d96d 183d a4b8 5cbd 1a66 b0bd
000001c0: 2a0b 823b 404c 7dbd 587e b13d 2c74 cfbd
000001d0: b0ef 403d 53e8 ca3d 820f 473e 8707 163c
000001e0: 9762 e5bd 696a 733e 6c89 b0bc a4d2 28be
000001f0: 08f0 e13d bb88 ffbd f3d3 5e3d 9254 9e3e
00000200: 7447 31be f98c 08bb 8093 793e 6602 a2bd
00000210: 7666 e6bc ec0d 40bd af10 16be a81f 99bd
00000220: d0e1 c0bd 8210 08be a6f5 473d fb01 b63b
00000230: 7de6 e7bd 4eac 9c3d 1193 da3c 3f11 4f3c
00000240: a06d a6bd a2b5 b63d 4f8f d93d 815d 9b3d
00000250: 095d 2bbb 3c04 d53d 72a5 13bc 069f 953d
00000260: 5e91 3f3d e4af 843d 3863 523d 3944 8e3d
00000270: 1868 b2bd 2044 123e d55d a4bd 995b a4bd
00000280: d5bf 203d 2f6e 93bd 1811 91bc e623 823e
00000290: f02d d93d b3d3 ce3d cbeb a53e f373 963d
000002a0: 62f1 103d 5cd4 993d 60f6 aebd 9771 1f3d
000002b0: d9ee 9dbd 0765 a3bd 98d7 ec3c 1c9c dfbc
000002c0: a243 293b 518e 78bc 74ca cd3c b3a3 8d3d
000002d0: a319 9dbd 73ad 33bc bb09 233d fdd0 07be
000002e0: 83f0 40be f0e5 04be 3e99 cebd bce4 bdbd
000002f0: c9ab 96bc de3d d2bc f03c 5abd 3034 09bd
00000300: f68c 1cbd f2a1 d33d 1b1f 20bd 4dec 9abd
00000310: c0bc 323d 8e4e ccbb b541 a53d 01e2 863d
00000320: a553 c63d e01a 9ebd 1ec8 8a3d 082e b53d
00000330: 1837 55bd 406e c63d b5d4 a13d ebb9 b7bd
00000340: 2187 d83d c403 06bd ed0c 20be 5f97 e73d
00000350: 21d6 883d c892 e2bd 6610 8f3d e66f 13be
00000360: 09d1 b73a 7c61 683e 4795 3e3c 651f bdbd
00000370: c315 823e 4daa 433d 318d 973c b642 ec3d
00000380: 6b59 e6bc 4ffb 8bbd e3d4 7cbd 5ac6 8abc
00000390: 55a1 7f3b 07b2 903d d700 b8bd 8708 2dbc
000003a0: 2611 463c 2b07 5abd 6614 5e3c 2215 013d
000003b0: adef 94bd 9273 35bd 8730 403b 1794 613d
000003c0: a0f4 d3bc 60f8 91bd 0b11 abbc ca96 c9bd
000003d0: 75b1 813c 0769 e03d 18a2 aebd 229e 193e
000003e0: fead 923d 1439 f9bd 77cb 793d 8bdf 6f3d
000003f0: 1970 59be a364 113d d79e 313e 772c 873c

block_2.0.bias f4 [10]
0.03960142 -0.048436087 0.056708414 -0.09671846 -0.10049892 0.10953415 0.11995129 -0.067862935
0.430508 -0.08334322
00000000: 1935 223d eb64 46bd 1547 683d 5414 c6bd
00000010: 61d2 cdbd 7153 e03d 06a9 f53d b9fb 8abd
00000020: 8b6b dc3e daaf aabd

block_2.2.weight f4 [10, 10, 3, 3]
-0.084650815 -0.072540216 0.020568341 -0.029304016 0.09287052 0.013022935 0.08844465 -0.057470497
0.035027403 0.113414064 -0.06430331 0.0018598215 -0.21300954 0.07450441 -0.030349178 -0.1231734
0.21681157 -0.11469655 0.01793013 0.032445338 0.14141154 -0.13764818 0.13856523 0.052072577
0.026223835 0.14527383 -0.19723473 -0.08490202 0.101800404 -0.0632979 -0.0759798 -0.0051539447
-0.033741765 -0.014421232 -0.07062264 0.038033642 -0.09070272 0.008537413 0.061510466 0.020252923
0.014005713 0.015417591 -0.030879699 -0.020080276 -0.04445038 -0.07196959 -0.033176236 0.14710277
-0.017371446 0.062274538 0.09384079 0.041620392 -0.07552033 -0.121885665 -0.06621366 0.033748783
-0.07660521 -0.050648436 0.061915003 0.0952321 0.044710763 0.06402453 0.044998087 0.0064173182
0.028308414 0.00566219 -0.07725962 -0.002563353 -0.015169405 0.068090454 0.005280084 -0.0053596674
0.21129245 -0.03062165 -0.11683865 -0.0118863 -0.11836843 0.06909559 -0.12625536 -0.07002673
0.10085664 -0.064461626 0.046878807 -0.041439053 0.0011844541 -0.07696711 -0.0061835987 0.02788204
-0.0015690334 -0.043960206 0.05479659 -0.0137348715 -0.03511759 -0.10835168 -0.070581906 -0.12180104
0.051737506 -0.084387705 -0.04442118 0.021916745 0.09820256 0.051627323 0.14043309 -0.009276032
0.020618001 -0.005502687 -0.104959466 -0.13594556 0.07313552 0.061235826 0.0984887 0.09908918
-0.08987814 -0.09599177 -0.038658924 -0.13992012 -0.10465632 -0.086257756 0.04009158 0.0745833
0.008345932 -0.07546045 -0.07982728 -0.041035734 0.03065869 0.0025711432 0.019165717 0.09934627
0.048956502 0.022665374 -0.021326602 0.049863767 0.03856298 -0.094879106 -0.062266193 0.005567901
0.050507143 0.07007969 -0.08595257 -0.13421358 -0.012082374 -0.052952617 -0.018775549 -0.041954882
0.108496405 0.022400385 0.08732642 -0.08675889 0.0055639395 -0.024210675 -0.06946767 0.03359721
-0.12316294 0.12726825 0.005675175 -0.028041786 0.053895 -0.015434904 0.015013625 0.07470697
-0.09677389 0.08017511 -0.08536595 -0.06860243 0.037266854 0.14651467 -0.012140968 -0.012710533
0.13800214 -0.055379663 0.020282663 -0.017368512 0.034197014 0.08799159 -0.07621918 -0.050579358
0.05871593 -0.0039608935 0.008106896 -0.055275753 0.12214444 0.091159746 -0.022122357 -0.050071817
-0.025019983 -0.06778069 0.028919347 0.117944136 -0.025013326 -0.18061963 -0.085938536 -0.03278633
0.04270661 0.14117701 0.15423672 0.07010933 0.1368626 0.008338065 -0.016891595 0.05144779
-0.057792652 0.102944285 0.16672923 0.0016362139 0.06995432 -0.005565979 -0.038271938 -0.08204219
0.077453084 0.055848505 0.06768709 -0.00809916 -0.07864563 0.07519252 -0.04609079 0.027734496
0.059719108 -0.09850765 0.0069953725 -0.037444152 0.074814774 -0.067114234 0.064001314 0.06573004
0.058155857 0.08631188 0.062897205 -0.16681929 0.12796475 0.04806995 -0.0937734 -0.062316027
-0.0049343514 -0.106638364 0.12625861 0.14997655 0.16079511 0.0710643 -0.049391333 -0.03199085
-0.05404742 -0.0247496 0.086535506 -0.0526356 0.10885944 -0.12048545 -0.061609395 0.07616144
0.041574873 -0.005633331 -0.061150562 -0.20269296 -0.26066077 -0.11500988 -0.07421921 -0.11931087
00000000: 685d adbd f78f 94bd f07e a83c fa0e f0bc
00000010: e632 be3d 265e 553c 7822 b53d 2f66 6bbd
00000020: e578 0f3d a245 e83d 74b1 83bd 41c5 f33a
00000030: 2c1f 5abe c595 983d d79e f8bc 5642 fcbd
00000040: da03 5e3e 06e6 eabd 35e2 923c 67e5 043d
00000050: 30ce 103e a5f3 0cbe 0be4 0d3e 0e4a 553d
00000060: 5ed3 d63c aac2 143e e7f7 49be 1ce1 adbd
00000070: bb7c d03d 54a2 81bd 4c9b 9bbd 6ce2 a8bb
00000080: ce34 0abd 0847 6cbc 9aa2 90bd 2ac9 1b3d
00000090: 59c2 b9bd 81e0 0b3c 66f2 7b3d 75e9 a53c
000000a0: 3878 653c 109a 7c3c 6cf7 fcbc 647f a4bc
000000b0: 9a11 36bd cb64 93bd cee3 07bd 1ca2 163e
000000c0: 904e 8ebc 9613 7f3d 9a2f c03d 257a 2a3d
000000d0: 67aa 9abd 319f f9bd 079b 87bd 2a3c 0a3d
000000e0: 31e3 9cbd bc74 4fbd 969a 7d3d 0c09 c33d
000000f0: a222 373d 4b1f 833d ea4f 383d 5e48 d23b
00000100: 0ce7 e73c e489 b93b 4b3a 9ebd edfd 27bb
00000110: 1989 78bc 0273 8b3d 8e04 ad3b 26a0 afbb
00000120: 0c5d 583e 41da fabc 1a49 efbd c1be 42bc
00000130: 266b f2bd fd81 8d3d 1649 01be 2d6a 8fbd
00000140: ed8d ce3d 7504 84bd fe03 403d ffbb 29bd
00000150: af3f 9b3a efa0 9dbd c99f cabb e068 e43c
00000160: 06a8 cdba 9e0f 34bd 6472 603d 3a08 61bc
00000170: 76d7 0fbd 7ce7 ddbd 3f8d 90bd d372 f9bd
00000180: b5ea 533d 76d3 acbd fcf2 35bd bf8a b33c
00000190: 6c1e c93d 2c77 533d b1cd 0f3e 80fa 17bc
000001a0: 15e7 a83c e24f b4bb fdf4 d6bd 5035 0bbe
000001b0: 13c8 953d 6bd2 7a3d 72b4 c93d 45ef ca3d
000001c0: 0812 b8bd 5597 c4bd d258 1ebd 3847 0fbe
000001d0: 0d56 d6bd e8a7 b0bd 1237 243d 21bf 983d
000001e0: 60bd 083c 028b 9abd 7c7c a3bd 1615 28bd
000001f0: ef27 fb3c a080 283b 6c01 9d3c 0f76 cb3d
00000200: 9d86 483d bcac b93c 20b5 aebc f33d 4c3d
00000210: 37f4 1d3d fa4f c2bd d60a 7fbd f072 b63b
00000220: 94e0 4e3d f185 8f3d e707 b0bd 496f 09be
00000230: 26f5 45bc d8e4 58bd 2ecf 99bc e2d8 2bbd
00000240: 5d33 de3d 0381 b73c 32d8 b23d a5ae b1bd
00000250: b551 b63b 7755 c6bc 1145 8ebd 3a9d 093d
00000260: da3c fcbd 9c52 023e d2f6 b93b e3b7 e5bc
00000270: 01c1 5c3d aee2 7cbc b5fb 753c f8ff 983d
00000280: 6431 c6bd d932 a43d 58d4 aebd 6e7f 8cbd
00000290: 21a5 183d f107 163e e9ea 46bc d73f 50bc
000002a0: 6f50 0d3e c9d5 62bd d427 a63c 6948 8ebc
000002b0: 2b12 0c3d ef34 b43d cd18 9cbd 4d2c 4fbd
000002c0: 1d80 703d 62ca 81bb c9d2 043c d468 62bd
000002d0: dd26 fa3d f6b1 ba3d f239 b5bc 1b18 4dbd
000002e0: b5f6 ccbc 9ad0 8abd 44e8 ec3c b28c f13d
000002f0: bfe8 ccbc 5af4 38be 8b00 b0bd f54a 06bd
00000300: 20ed 2e3d b590 103e 3bf0 1d3e 7b95 8f3d
00000310: b625 0c3e 619c 083c 3e60 8abc ebba 523d
00000320: fdb7 6cbd 74d4 d23d 11bb 2a3e 3a76 d63a
00000330: 3644 8f3d d162 b6bb 09c3 1cbd bc05 a8bd
00000340: b99f 9e3d 67c1 643d 879f 8a3d 57b2 04bc
00000350: f610 a1bd 89fe 993d b2c9 3cbd 7433 e33c
00000360: 069c 743d 61be c9bd 7039 e53b 0a5f 19bd
00000370: 7d38 993d 3073 89bd 1f13 833d 799d 863d
00000380: d634 6e3d 48c4 b03d 40d0 803d add2 2abe
00000390: 3109 033e ffe4 443d 450c c0bd 173f 7fbd
000003a0: 57b0 a1bb 3765 dabd f049 013e 7493 193e
000003b0: 79a7 243e 298a 913d 914e 4abd d608 03bd
000003c0: d460 5dbd acbf cabc 8739 b13d 6d98 57bd
000003d0: b3f1 de3d 13c1 f6bd 225a 7cbd 87fa 9b3d
000003e0: 6a4a 2a3d ce97 b8bb 0379 7abd be8e 4fbe
000003f0: 5475 85be 4d8a ebbd 3e00 98bd 4259 f4bd

block_2.2.bias f4 [10]
0.05804246 -0.07574217 0.085001454 0.052970458 -0.11330705 0.01394081 0.22068441 0.025917886
0.43773705 -0.12087818
00000000: eebd 6d3d b61e 9bbd 3e15 ae3d 8df7 583d
00000010: 870d e8bd ff67 643c 18fb 613e bf51 d43c
00000020: 121f e03e fb8e f7bd

classifier.1.weight f4 [10, 490]
-0.00945464 -0.03084977 -0.0717649 0.010138356 -0.005562913 0.014268178 0.023490943 -0.055735055
-0.038579296 0.0008577906 0.025333315 0.023525676 0.049624935 0.016760703 -0.00058410026 -0.024144532
0.05300077 -0.009225248 0.038409248 0.049135074 -0.04199127 -0.0012340565 -0.004220115 0.019382443
-0.008157793 0.037533417 0.015819838 -0.0379886 -0.033408727 0.0021235566 0.019933354 -0.058057114
0.026814785 0.010771867 -0.039086964 0.01049241 0.0036805684 -0.004313867 0.0048817885 -0.054126814
0.01939476 0.038280644 0.00851757 0.0456661 -0.027823847 -0.021194344 -0.009210606 -0.005009822
-0.0069436645 0.006303195 -0.01690794 -0.02370741 -0.03839956 -0.0056422874 -0.03138512 0.039866455
0.009681347 -0.040476777 0.028193302 0.076451465 0.04180617 -0.032371838 -0.01179826 -0.009917784
0.016592886 0.041579466 0.07662507 0.05655587 0.071161345 0.017609883 -0.013497118 0.015767116
-0.029262796 0.01987812 0.017416108 -0.0009636759 -0.06458849 0.025469944 0.032675683 0.02300886
-0.03643851 -0.007793345 -0.051335994 -0.06616081 -0.031865913 0.0199991 -0.050426636 -0.012629503
-0.025603699 0.0006819038 0.023401134 0.023394858 -0.04186179 0.017807592 -0.06340763 -0.061400108
-0.003169985 0.0038674246 0.05429813 0.06623592 -0.0038327014 0.0631724 0.10342111 0.19530159
-0.013369411 0.13847975 0.06055856 0.07230389 0.06830397 0.068194434 0.055324282 0.12640506
0.14484018 0.16905013 0.07106115 -0.003775233 0.09173996 0.06563247 0.06092893 0.03797698
-0.058068026 -0.050250523 -0.07172562 0.04073941 -0.20544374 -0.048572455 -0.042969044 -0.11772974
-0.0042097666 -0.0492882 -0.060731076 -0.22433472 -0.020897042 -0.005251407 0.010745727 -0.023212323
-0.043286856 -0.07403827 -0.11985407 -0.06145954 -0.09257271 0.07540184 0.021291938 0.009423933
-0.03734284 -0.011203025 -0.09263835 -0.010757361 0.014841309 0.014723236 0.025634909 0.019073218
0.007994231 0.026992219 -0.035697293 0.009418969 0.0149179185 -0.024361616 0.0041573406 -0.034229826
-0.026472451 -0.0031858766 0.0032526783 -0.011397313 0.01612279 -0.030269438 -0.02794076 0.047825225
-0.03957269 0.02184513 0.037370145 0.037299678 0.027657814 -0.01651659 0.014265929 -0.011990439
0.010775995 0.035604447 -0.02063143 -0.023000028 -0.04530155 0.013974264 0.0075545222 0.065072775
0.0029103083 -0.059381567 0.010028139 0.032097574 0.02061739 0.013828361 -0.015251805 -0.04228845
-0.009402892 -0.050950065 -0.005726558 -0.01595962 0.015130814 0.0046140007 -0.031446423 -0.017043509
0.032044187 -0.010458209 0.026175225 -0.022944933 0.037031397 -0.0057622585 -0.01589945 -0.0076729753
-0.041702818 -0.01785993 -0.0066015953 -0.0017131527 -0.023181163 0.015650082 -0.06366004 -0.00443041
0.029959483 0.0071948245 -0.009595911 -0.039396223 0.022274928 0.03155535 0.046966773 -0.0063139675
0.014908219 0.0445663 0.0074165086 -0.021331988 -0.048896432 0.00659141 -0.00516676 0.039971985
-0.021413637 0.01759657 -0.016541474 -0.027178662 0.014930946 -0.06815552 0.033154115 0.02411284
-0.03238895 0.017599521 -0.02519612 0.0075719296 -0.03548871 -0.04342197 -0.0047314647 0.022010347
-0.0050243433 -0.02240182 0.005192519 0.011388226 -0.012970463 -0.035034154 -0.024221465 -0.0073561496
00000000: a2e7 1abc a8b8 fcbc 7af9 92bd 591b 263c
00000010: 1949 b6bb 13c5 693c 1470 c03c 714a 64bd
00000020: 5305 1ebd 5add 603a d087 cf3c ebb8 c03c
00000030: 8443 4b3d be4d 893c 4e1e 19ba c1ca c5bc
00000040: 5617 593d 7f25 17bc 0453 1d3d dc41 493d
00000050: 0aff 2bbd 11c0 a1ba e448 8abb eec7 9e3c
00000060: 44a8 05bc a4bc 193d 9b98 813c ef99 1bbd
00000070: 97d7 08bd 5e2b 0b3b 464b a33c 4ccd 6dbd
00000080: aeaa db3c 7c7c 303c a719 20bd 5be8 2b3c
00000090: b135 713b 575b 8dbb 69f7 9f3b 14b4 5dbd
000000a0: c2e1 9e3c 2acc 1c3d 478d 0b3c 600c 3b3d
000000b0: d6ee e3bc c39f adbc 15e8 16bc 6f29 a4bb
000000c0: ae87 e3bb 088b ce3b 8582 8abc 0b36 c2bc
000000d0: db48 1dbd f0e2 b8bb af8d 00bd 024b 233d
000000e0: 839e 1e3c faca 25bd a4f5 e63c 9692 9c3d
000000f0: f23c 2b3d 5598 04bd 7d4d 41bc 337e 22bc
00000100: ceed 873c 3b4f 2a3d 9bed 9c3d 21a7 673d
00000110: 0abd 913d 9a42 903c 0423 5dbc 0a2a 813c
00000120: 88b8 efbc 70d7 a23c 3aac 8e3c 329f 7cba
00000130: f846 84bd 58a6 d03c f0d6 053d 147d bc3c
00000140: 8c40 15bd 515f ffbb b145 52bd 527f 87bd
00000150: d585 02bd 27d5 a33c 298c 4ebd faeb 4ebc
00000160: d9be d1bc cac1 323a bcb3 bf3c 93a6 bf3c
00000170: 4577 2bbd 3ae1 913c dcdb 81bd ae7e 7bbd
00000180: 86bf 4fbb 9e74 7d3b b767 5e3d b3a6 873d
00000190: 0f2e 7bbb 8860 813d 72ce d33d 24fd 473e
000001a0: 600b 5bbc a3cd 0d3e 410c 783d 1014 943d
000001b0: f4e2 8b3d 86a9 8b3d b79b 623d 5470 013e
000001c0: fc50 143e 7a1b 2d3e 8288 913d e669 77bb
000001d0: 29e2 bb3d 516a 863d 9d90 793d c08d 1b3d
000001e0: bdd8 6dbd 7ed3 4dbd e2e4 92bd 5ede 263d
000001f0: d85f 52be e9f3 46bd 4f00 30bd 4a1c f1bd
00000200: 15f2 89bb 6ce2 49bd 26c1 78bd 00b8 65be
00000210: 4630 abbc ff13 acbb d90e 303c c527 bebc
00000220: 8f4d 31bd 60a1 97bd 0d76 f5bd 00bd 7bbd
00000230: c396 bdbd 486c 9a3d 6e6c ae3c d766 1a3c
00000240: cef4 18bd e48c 37bc 2db9 bdbd a43f 30bc
00000250: f628 733c ba39 713c 4d00 d23c 703f 9c3c
00000260: 3cfa 023c c91e dd3c 5337 12bd 0552 1a3c
00000270: 496a 743c 0392 c7bc 4d3a 883b 9334 0cbd
00000280: c1dc d8bc 24ca 50bb e32a 553b ccbb 3abc
00000290: f113 843c 9df7 f7bc 05e4 e4bc 62e4 433d
000002a0: f916 22bd 8ff4 b23c 7011 193d 8cc7 183d
000002b0: a492 e23c cd4d 87bc a5bb 693c 8c73 44bc
000002c0: cd8d 303c f8d5 113d 3f03 a9bc 8e6a bcbc
000002d0: 1e8e 39bd 50f4 643c ed8b f73b e044 853d
000002e0: dfba 3e3b 163a 73bd 104d 243c bf78 033d
000002f0: cde5 a83c 5a90 623c b5e2 79bc a736 2dbd
00000300: 960e 1abc 04b1 50bd daa5 bbbb c0bd 82bc
00000310: 3ce7 773c 0b31 973b f7cd 00bd d49e 8bbc
00000320: c440 033d e858 2bbc 6d6d d63c 03f7 bbbc
00000330: 3cae 173d 54d1 bcbb 903f 82bc 956d fbbb
00000340: 93d0 2abd fd4e 92bc 3252 d8bb de8b e0ba
00000350: 6ce6 bdbc 9a34 803c 3260 82bd f92c 91bb
00000360: 976d f53c 90c2 eb3b 2b38 1dbc ef5d 21bd
00000370: e979 b63c 2f40 013d 3b60 403d 66e5 cebb
00000380: 9a41 743c 278b 363d 2f06 f33b 6cc0 aebc
00000390: a047 48bd c1fc d73b ed4d a9bb aab9 233d
000003a0: a76b afbc af26 903c fc81 87bc c9a5 debc
000003b0: eda0 743c 1f95 8bbd 9ccc 073d 4a88 c53c
000003c0: 47aa 04bd df2c 903c 1868 cebc f31d f83b
000003d0: 9c5c 11bd 3cdb 31bd 670a 9bbb 0b4f b43c
000003e0: 3fa3 a4bb 0684 b7bc 0226 aa3b af95 3a3c
000003f0: 1182 54bc f97f 0fbd 186c c6bc db0b f1bb

classifier.1.bias f4 [10]
0.056548234 -0.06322792 0.06818255 -0.02857079 -0.18335585 0.08669949 0.067548715 -0.014810172
0.026625676 -0.052464038
00000000: 1f9f 673d a47d 81bd 4ba3 8b3d 4a0d eabc
00000010: a3c1 3bbe 818f b13d fb56 8a3d 5da6 72bc
00000020: 171e da3c 88e4 56bd
